        (2): SqueezeExcitation(\n",
            "            (avgpool): AdaptiveAvgPool2d(output_size=1)\n",
            "            (fc1): Conv2d(96, 4, kernel_size=(1, 1), stride=(1, 1))\n",
            "            (fc2): Conv2d(4, 96, kernel_size=(1, 1), stride=(1, 1))\n",
            "            (activation): SiLU(inplace=True)\n",
            "            (scale_activation): Sigmoid()\n",
            "          )\n",
            "          (3): Conv2dNormActivation(\n",
            "            (0): Conv2d(96, 24, kernel_size=(1, 1), stride=(1, 1), bias=False)\n",
            "            (1): BatchNorm2d(24, eps=1e-05, momentum=0.1, affine=True, track_running_stats=True)\n",
            "          )\n",
            "        )\n",
            "        (stochastic_depth): StochasticDepth(p=0.017391304347826087, mode=row)\n",
            "      )\n",
            "      (1): MBConv(\n",
            "        (block): Sequential(\n",
            "          (0): Conv2dNormActivation(\n",
            "            (0): Conv2d(24, 144, kernel_size=(1, 1), stride=(1, 1), bias=False)\n",
            "            (1): BatchNorm2d(144, eps=1e-05, momentum=0.1, affine=True, track_running_stats=True)\n",
            "            (2): SiLU(inplace=True)\n",
            "          )\n",
            "          (1): Conv2dNormActivation(\n",
            "            (0): Conv2d(144, 144, kernel_size=(3, 3), stride=(1, 1), padding=(1, 1), groups=144, bias=False)\n",
            "            (1): BatchNorm2d(144, eps=1e-05, momentum=0.1, affine=True, track_running_stats=True)\n",
            "            (2): SiLU(inplace=True)\n",
            "          )\n",
            "          (2): SqueezeExcitation(\n",
            "            (avgpool): AdaptiveAvgPool2d(output_size=1)\n",
            "            (fc1): Conv2d(144, 6, kernel_size=(1, 1), stride=(1, 1))\n",
            "            (fc2): Conv2d(6, 144, kernel_size=(1, 1), stride=(1, 1))\n",
            "            (activation): SiLU(inplace=True)\n",
            "            (scale_activation): Sigmoid()\n",
            "          )\n",
            "          (3): Conv2dNormActivation(\n",
            "            (0): Conv2d(144, 24, kernel_size=(1, 1), stride=(1, 1), bias=False)\n",
            "            (1): BatchNorm2d(24, eps=1e-05, momentum=0.1, affine=True, track_running_stats=True)\n",
            "          )\n",
            "        )\n",
            "        (stochastic_depth): StochasticDepth(p=0.026086956521739136, mode=row)\n",
            "      )\n",
            "      (2): MBConv(\n",
            "        (block): Sequential(\n",
            "          (0): Conv2dNormActivation(\n",
            "            (0): Conv2d(24, 144, kernel_size=(1, 1), stride=(1, 1), bias=False)\n",
            "            (1): BatchNorm2d(144, eps=1e-05, momentum=0.1, affine=True, track_running_stats=True)\n",
            "            (2): SiLU(inplace=True)\n",
            "          )\n",
            "          (1): Conv2dNormActivation(\n",
            "            (0): Conv2d(144, 144, kernel_size=(3, 3), stride=(1, 1), padding=(1, 1), groups=144, bias=False)\n",
            "            (1): BatchNorm2d(144, eps=1e-05, momentum=0.1, affine=True, track_running_stats=True)\n",
            "            (2): SiLU(inplace=True)\n",
            "          )\n",
            "          (2): SqueezeExcitation(\n",
            "            (avgpool): AdaptiveAvgPool2d(output_size=1)\n",
            "            (fc1): Conv2d(144, 6, kernel_size=(1, 1), stride=(1, 1))\n",
            "            (fc2): Conv2d(6, 144, kernel_size=(1, 1), stride=(1, 1))\n",
            "            (activation): SiLU(inplace=True)\n",
            "            (scale_activation): Sigmoid()\n",
            "          )\n",
            "          (3): Conv2dNormActivation(\n",
            "            (0): Conv2d(144, 24, kernel_size=(1, 1), stride=(1, 1), bias=False)\n",
            "            (1): BatchNorm2d(24, eps=1e-05, momentum=0.1, affine=True, track_running_stats=True)\n",
            "          )\n",
            "        )\n",
            "        (stochastic_depth): StochasticDepth(p=0.034782608695652174, mode=row)\n",
            "      )\n",
            "    )\n",
            "    (3): Sequential(\n",
            "      (0): MBConv(\n",
            "        (block): Sequential(\n",
            "          (0): Conv2dNormActivation(\n",
            "            (0): Conv2d(24, 144, kernel_size=(1, 1), stride=(1, 1), bias=False)\n",
            "            (1): BatchNorm2d(144, eps=1e-05, momentum=0.1, affine=True, track_running_stats=True)\n",
            "            (2): SiLU(inplace=True)\n",
            "          )\n",
            "          (1): Conv2dNormActivation(\n",
            "            (0): Conv2d(144, 144, kernel_size=(5, 5), stride=(2, 2), padding=(2, 2), groups=144, bias=False)\n",
            "            (1): BatchNorm2d(144, eps=1e-05, momentum=0.1, affine=True, track_running_stats=True)\n",
            "            (2): SiLU(inplace=True)\n",
            "          )\n",
            "          (2): SqueezeExcitation(\n",
            "            (avgpool): AdaptiveAvgPool2d(output_size=1)\n",
            "            (fc1): Conv2d(144, 6, kernel_size=(1, 1), stride=(1, 1))\n",
            "            (fc2): Conv2d(6, 144, kernel_size=(1, 1), stride=(1, 1))\n",
            "            (activation): SiLU(inplace=True)\n",
            "            (scale_activation): Sigmoid()\n",
            "          )\n",
            "          (3): Conv2dNormActivation(\n",
            "            (0): Conv2d(144, 40, kernel_size=(1, 1), stride=(1, 1), bias=False)\n",
            "            (1): BatchNorm2d(40, eps=1e-05, momentum=0.1, affine=True, track_running_stats=True)\n",
            "          )\n",
            "        )\n",
            "        (stochastic_depth): StochasticDepth(p=0.043478260869565216, mode=row)\n",
            "      )\n",
            "      (1): MBConv(\n",
            "        (block): Sequential(\n",
            "          (0): Conv2dNormActivation(\n",
            "            (0): Conv2d(40, 240, kernel_size=(1, 1), stride=(1, 1), bias=False)\n",
            "            (1): BatchNorm2d(240, eps=1e-05, momentum=0.1, affine=True, track_running_stats=True)\n",
            "            (2): SiLU(inplace=True)\n",
            "          )\n",
            "          (1): Conv2dNormActivation(\n",
            "            (0): Conv2d(240, 240, kernel_size=(5, 5), stride=(1, 1), padding=(2, 2), groups=240, bias=False)\n",
            "            (1): BatchNorm2d(240, eps=1e-05, momentum=0.1, affine=True, track_running_stats=True)\n",
            "            (2): SiLU(inplace=True)\n",
            "          )\n",
            "          (2): SqueezeExcitation(\n",
            "            (avgpool): AdaptiveAvgPool2d(output_size=1)\n",
            "            (fc1): Conv2d(240, 10, kernel_size=(1, 1), stride=(1, 1))\n",
            "            (fc2): Conv2d(10, 240, kernel_size=(1, 1), stride=(1, 1))\n",
            "            (activation): SiLU(inplace=True)\n",
            "            (scale_activation): Sigmoid()\n",
            "          )\n",
            "          (3): Conv2dNormActivation(\n",
            "            (0): Conv2d(240, 40, kernel_size=(1, 1), stride=(1, 1), bias=False)\n",
            "            (1): BatchNorm2d(40, eps=1e-05, momentum=0.1, affine=True, track_running_stats=True)\n",
            "          )\n",
            "        )\n",
            "        (stochastic_depth): StochasticDepth(p=0.05217391304347827, mode=row)\n",
            "      )\n",
            "      (2): MBConv(\n",
            "        (block): Sequential(\n",
            "          (0): Conv2dNormActivation(\n",
            "            (0): Conv2d(40, 240, kernel_size=(1, 1), stride=(1, 1), bias=False)\n",
            "            (1): BatchNorm2d(240, eps=1e-05, momentum=0.1, affine=True, track_running_stats=True)\n",
            "            (2): SiLU(inplace=True)\n",
            "          )\n",
            "          (1): Conv2dNormActivation(\n",
            "            (0): Conv2d(240, 240, kernel_size=(5, 5), stride=(1, 1), padding=(2, 2), groups=240, bias=False)\n",
            "            (1): BatchNorm2d(240, eps=1e-05, momentum=0.1, affine=True, track_running_stats=True)\n",
            "            (2): SiLU(inplace=True)\n",
            "          )\n",
            "          (2): SqueezeExcitation(\n",
            "            (avgpool): AdaptiveAvgPool2d(output_size=1)\n",
            "            (fc1): Conv2d(240, 10, kernel_size=(1, 1), stride=(1, 1))\n",
            "            (fc2): Conv2d(10, 240, kernel_size=(1, 1), stride=(1, 1))\n",
            "            (activation): SiLU(inplace=True)\n",
            "            (scale_activation): Sigmoid()\n",
            "          )\n",
            "          (3): Conv2dNormActivation(\n",
            "            (0): Conv2d(240, 40, kernel_size=(1, 1), stride=(1, 1), bias=False)\n",
            "            (1): BatchNorm2d(40, eps=1e-05, momentum=0.1, affine=True, track_running_stats=True)\n",
            "          )\n",
            "        )\n",
            "        (stochastic_depth): StochasticDepth(p=0.06086956521739131, mode=row)\n",
            "      )\n",
            "    )\n",
            "    (4): Sequential(\n",
            "      (0): MBConv(\n",
            "        (block): Sequential(\n",
            "          (0): Conv2dNormActivation(\n",
            "            (0): Conv2d(40, 240, kernel_size=(1, 1), stride=(1, 1), bias=False)\n",
            "            (1): BatchNorm2d(240, eps=1e-05, momentum=0.1, affine=True, track_running_stats=True)\n",
            "            (2): SiLU(inplace=True)\n",
            "          )\n",
            "          (1): Conv2dNormActivation(\n",
            "            (0): Conv2d(240, 240, kernel_size=(3, 3), stride=(2, 2), padding=(1, 1), groups=240, bias=False)\n",
            "            (1): BatchNorm2d(240, eps=1e-05, momentum=0.1, affine=True, track_running_stats=True)\n",
            "            (2): SiLU(inplace=True)\n",
            "          )\n",
            "          (2): SqueezeExcitation(\n",
            "            (avgpool): AdaptiveAvgPool2d(output_size=1)\n",
            "            (fc1): Conv2d(240, 10, kernel_size=(1, 1), stride=(1, 1))\n",
            "            (fc2): Conv2d(10, 240, kernel_size=(1, 1), stride=(1, 1))\n",
            "            (activation): SiLU(inplace=True)\n",
            "            (scale_activation): Sigmoid()\n",
            "          )\n",
            "          (3): Conv2dNormActivation(\n",
            "            (0): Conv2d(240, 80, kernel_size=(1, 1), stride=(1, 1), bias=False)\n",
            "            (1): BatchNorm2d(80, eps=1e-05, momentum=0.1, affine=True, track_running_stats=True)\n",
            "          )\n",
            "        )\n",
            "        (stochastic_depth): StochasticDepth(p=0.06956521739130435, mode=row)\n",
            "      )\n",
            "      (1): MBConv(\n",
            "        (block): Sequential(\n",
            "          (0): Conv2dNormActivation(\n",
            "            (0): Conv2d(80, 480, kernel_size=(1, 1), stride=(1, 1), bias=False)\n",
            "            (1): BatchNorm2d(480, eps=1e-05, momentum=0.1, affine=True, track_running_stats=True)\n",
            "            (2): SiLU(inplace=True)\n",
            "          )\n",
            "          (1): Conv2dNormActivation(\n",
            "            (0): Conv2d(480, 480, kernel_size=(3, 3), stride=(1, 1), padding=(1, 1), groups=480, bias=False)\n",
            "            (1): BatchNorm2d(480, eps=1e-05, momentum=0.1, affine=True, track_running_stats=True)\n",
            "            (2): SiLU(inplace=True)\n",
            "          )\n",
            "          (2): SqueezeExcitation(\n",
            "            (avgpool): AdaptiveAvgPool2d(output_size=1)\n",
            "            (fc1): Conv2d(480, 20, kernel_size=(1, 1), stride=(1, 1))\n",
            "            (fc2): Conv2d(20, 480, kernel_size=(1, 1), stride=(1, 1))\n",
            "            (activation): SiLU(inplace=True)\n",
            "            (scale_activation): Sigmoid()\n",
            "          )\n",
            "          (3): Conv2dNormActivation(\n",
            "            (0): Conv2d(480, 80, kernel_size=(1, 1), stride=(1, 1), bias=False)\n",
            "            (1): BatchNorm2d(80, eps=1e-05, momentum=0.1, affine=True, track_running_stats=True)\n",
            "          )\n",
            "        )\n",
            "        (stochastic_depth): StochasticDepth(p=0.0782608695652174, mode=row)\n",
            "      )\n",
            "      (2): MBConv(\n",
            "        (block): Sequential(\n",
            "          (0): Conv2dNormActivation(\n",
            "            (0): Conv2d(80, 480, kernel_size=(1, 1), stride=(1, 1), bias=False)\n",
            "            (1): BatchNorm2d(480, eps=1e-05, momentum=0.1, affine=True, track_running_stats=True)\n",
            "            (2): SiLU(inplace=True)\n",
            "          )\n",
            "          (1): Conv2dNormActivation(\n",
            "            (0): Conv2d(480, 480, kernel_size=(3, 3), stride=(1, 1), padding=(1, 1), groups=480, bias=False)\n",
            "            (1): BatchNorm2d(480, eps=1e-05, momentum=0.1, affine=True, track_running_stats=True)\n",
            "            (2): SiLU(inplace=True)\n",
            "          )\n",
            "          (2): SqueezeExcitation(\n",
            "            (avgpool): AdaptiveAvgPool2d(output_size=1)\n",
            "            (fc1): Conv2d(480, 20, kernel_size=(1, 1), stride=(1, 1))\n",
            "            (fc2): Conv2d(20, 480, kernel_size=(1, 1), stride=(1, 1))\n",
            "            (activation): SiLU(inplace=True)\n",
            "            (scale_activation): Sigmoid()\n",
            "          )\n",
            "          (3): Conv2dNormActivation(\n",
            "            (0): Conv2d(480, 80, kernel_size=(1, 1), stride=(1, 1), bias=False)\n",
            "            (1): BatchNorm2d(80, eps=1e-05, momentum=0.1, affine=True, track_running_stats=True)\n",
            "          )\n",
            "        )\n",
            "        (stochastic_depth): StochasticDepth(p=0.08695652173913043, mode=row)\n",
            "      )\n",
            "      (3): MBConv(\n",
            "        (block): Sequential(\n",
            "          (0): Conv2dNormActivation(\n",
            "            (0): Conv2d(80, 480, kernel_size=(1, 1), stride=(1, 1), bias=False)\n",
            "            (1): BatchNorm2d(480, eps=1e-05, momentum=0.1, affine=True, track_running_stats=True)\n",
            "            (2): SiLU(inplace=True)\n",
            "          )\n",
            "          (1): Conv2dNormActivation(\n",
            "            (0): Conv2d(480, 480, kernel_size=(3, 3), stride=(1, 1), padding=(1, 1), groups=480, bias=False)\n",
            "            (1): BatchNorm2d(480, eps=1e-05, momentum=0.1, affine=True, track_running_stats=True)\n",
            "            (2): SiLU(inplace=True)\n",
            "          )\n",
            "          (2): SqueezeExcitation(\n",
            "            (avgpool): AdaptiveAvgPool2d(output_size=1)\n",
            "            (fc1): Conv2d(480, 20, kernel_size=(1, 1), stride=(1, 1))\n",
            "            (fc2): Conv2d(20, 480, kernel_size=(1, 1), stride=(1, 1))\n",
            "            (activation): SiLU(inplace=True)\n",
            "            (scale_activation): Sigmoid()\n",
            "          )\n",
            "          (3): Conv2dNormActivation(\n",
            "            (0): Conv2d(480, 80, kernel_size=(1, 1), stride=(1, 1), bias=False)\n",
            "            (1): BatchNorm2d(80, eps=1e-05, momentum=0.1, affine=True, track_running_stats=True)\n",
            "          )\n",
            "        )\n",
            "        (stochastic_depth): StochasticDepth(p=0.09565217391304348, mode=row)\n",
            "      )\n",
            "    )\n",
            "    (5): Sequential(\n",
            "      (0): MBConv(\n",
            "        (block): Sequential(\n",
            "          (0): Conv2dNormActivation(\n",
            "            (0): Conv2d(80, 480, kernel_size=(1, 1), stride=(1, 1), bias=False)\n",
            "            (1): BatchNorm2d(480, eps=1e-05, momentum=0.1, affine=True, track_running_stats=True)\n",
            "            (2): SiLU(inplace=True)\n",
            "          )\n",
            "          (1): Conv2dNormActivation(\n",
            "            (0): Conv2d(480, 480, kernel_size=(5, 5), stride=(1, 1), padding=(2, 2), groups=480, bias=False)\n",
            "            (1): BatchNorm2d(480, eps=1e-05, momentum=0.1, affine=True, track_running_stats=True)\n",
            "            (2): SiLU(inplace=True)\n",
            "          )\n",
            "          (2): SqueezeExcitation(\n",
            "            (avgpool): AdaptiveAvgPool2d(output_size=1)\n",
            "            (fc1): Conv2d(480, 20, kernel_size=(1, 1), stride=(1, 1))\n",
            "            (fc2): Conv2d(20, 480, kernel_size=(1, 1), stride=(1, 1))\n",
            "            (activation): SiLU(inplace=True)\n",
            "            (scale_activation): Sigmoid()\n",
            "          )\n",
            "          (3): Conv2dNormActivation(\n",
            "            (0): Conv2d(480, 112, kernel_size=(1, 1), stride=(1, 1), bias=False)\n",
            "            (1): BatchNorm2d(112, eps=1e-05, momentum=0.1, affine=True, track_running_stats=True)\n",
            "          )\n",
            "        )\n",
            "        (stochastic_depth): StochasticDepth(p=0.10434782608695654, mode=row)\n",
            "      )\n",
            "      (1): MBConv(\n",
            "        (block): Sequential(\n",
            "          (0): Conv2dNormActivation(\n",
            "            (0): Conv2d(112, 672, kernel_size=(1, 1), stride=(1, 1), bias=False)\n",
            "            (1): BatchNorm2d(672, eps=1e-05, momentum=0.1, affine=True, track_running_stats=True)\n",
            "            (2): SiLU(inplace=True)\n",
            "          )\n",
            "          (1): Conv2dNormActivation(\n",
            "            (0): Conv2d(672, 672, kernel_size=(5, 5), stride=(1, 1), padding=(2, 2), groups=672, bias=False)\n",
            "            (1): BatchNorm2d(672, eps=1e-05, momentum=0.1, affine=True, track_running_stats=True)\n",
            "            (2): SiLU(inplace=True)\n",
            "          )\n",
            "          (2): SqueezeExcitation(\n",
            "            (avgpool): AdaptiveAvgPool2d(output_size=1)\n",
            "            (fc1): Conv2d(672, 28, kernel_size=(1, 1), stride=(1, 1))\n",
            "            (fc2): Conv2d(28, 672, kernel_size=(1, 1), stride=(1, 1))\n",
            "            (activation): SiLU(inplace=True)\n",
            "            (scale_activation): Sigmoid()\n",
            "          )\n",
            "          (3): Conv2dNormActivation(\n",
            "            (0): Conv2d(672, 112, kernel_size=(1, 1), stride=(1, 1), bias=False)\n",
            "            (1): BatchNorm2d(112, eps=1e-05, momentum=0.1, affine=True, track_running_stats=True)\n",
            "          )\n",
            "        )\n",
            "        (stochastic_depth): StochasticDepth(p=0.11304347826086956, mode=row)\n",
            "      )\n",
            "      (2): MBConv(\n",
            "        (block): Sequential(\n",
            "          (0): Conv2dNormActivation(\n",
            "            (0): Conv2d(112, 672, kernel_size=(1, 1), stride=(1, 1), bias=False)\n",
            "            (1): BatchNorm2d(672, eps=1e-05, momentum=0.1, affine=True, track_running_stats=True)\n",
            "            (2): SiLU(inplace=True)\n",
            "          )\n",
            "          (1): Conv2dNormActivation(\n",
            "            (0): Conv2d(672, 672, kernel_size=(5, 5), stride=(1, 1), padding=(2, 2), groups=672, bias=False)\n",
            "            (1): BatchNorm2d(672, eps=1e-05, momentum=0.1, affine=True, track_running_stats=True)\n",
            "            (2): SiLU(inplace=True)\n",
            "          )\n",
            "          (2): SqueezeExcitation(\n",
            "            (avgpool): AdaptiveAvgPool2d(output_size=1)\n",
            "            (fc1): Conv2d(672, 28, kernel_size=(1, 1), stride=(1, 1))\n",
            "            (fc2): Conv2d(28, 672, kernel_size=(1, 1), stride=(1, 1))\n",
            "            (activation): SiLU(inplace=True)\n",
            "            (scale_activation): Sigmoid()\n",
            "          )\n",
            "          (3): Conv2dNormActivation(\n",
            "            (0): Conv2d(672, 112, kernel_size=(1, 1), stride=(1, 1), bias=False)\n",
            "            (1): BatchNorm2d(112, eps=1e-05, momentum=0.1, affine=True, track_running_stats=True)\n",
            "          )\n",
            "        )\n",
            "        (stochastic_depth): StochasticDepth(p=0.12173913043478261, mode=row)\n",
            "      )\n",
            "      (3): MBConv(\n",
            "        (block): Sequential(\n",
            "          (0): Conv2dNormActivation(\n",
            "            (0): Conv2d(112, 672, kernel_size=(1, 1), stride=(1, 1), bias=False)\n",
            "            (1): BatchNorm2d(672, eps=1e-05, momentum=0.1, affine=True, track_running_stats=True)\n",
            "            (2): SiLU(inplace=True)\n",
            "          )\n",
            "          (1): Conv2dNormActivation(\n",
            "            (0): Conv2d(672, 672, kernel_size=(5, 5), stride=(1, 1), padding=(2, 2), groups=672, bias=False)\n",
            "            (1): BatchNorm2d(672, eps=1e-05, momentum=0.1, affine=True, track_running_stats=True)\n",
            "            (2): SiLU(inplace=True)\n",
            "          )\n",
            "          (2): SqueezeExcitation(\n",
            "            (avgpool): AdaptiveAvgPool2d(output_size=1)\n",
            "            (fc1): Conv2d(672, 28, kernel_size=(1, 1), stride=(1, 1))\n",
            "            (fc2): Conv2d(28, 672, kernel_size=(1, 1), stride=(1, 1))\n",
            "            (activation): SiLU(inplace=True)\n",
            "            (scale_activation): Sigmoid()\n",
            "          )\n",
            "          (3): Conv2dNormActivation(\n",
            "            (0): Conv2d(672, 112, kernel_size=(1, 1), stride=(1, 1), bias=False)\n",
            "            (1): BatchNorm2d(112, ep