…
      "metadata": {
        "id": "6c5c6a51"
      },
      "source": [
        "Muestra la arquitectura del modelo cargado:"
      ]
    },
    {
      "cell_type": "code",
      "execution_count": 9,
      "id": "2ebab975",
      "metadata": {
        "id": "2ebab975"
      },
      "outputs": [
        {
          "name": "stdout",
          "output_type": "stream",
          "text": [
            "Arquitectura completa del modelo EfficientNet B1:\n",
            "EfficientNet(\n",
            "  (features): Sequential(\n",
            "    (0): Conv2dNormActivation(\n",
            "      (0): Conv2d(3, 32, kernel_size=(3, 3), stride=(2, 2), padding=(1, 1), bias=False)\n",
            "      (1): BatchNorm2d(32, eps=1e-05, momentum=0.1, affine=True, track_running_stats=True)\n",
            "      (2): SiLU(inplace=True)\n",
            "    )\n",
            "    (1): Sequential(\n",
            "      (0): MBConv(\n",
            "        (block): Sequential(\n",
            "          (0): Conv2dNormActivation(\n",
            "            (0): Conv2d(32, 32, kernel_size=(3, 3), stride=(1, 1), padding=(1, 1), groups=32, bias=False)\n",
            "            (1): BatchNorm2d(32, eps=1e-05, momentum=0.1, affine=True, track_running_stats=True)\n",
            "            (2): SiLU(inplace=True)\n",
            "          )\n",
            "          (1): SqueezeExcitation(\n",
            "            (avgpool): AdaptiveAvgPool2d(output_size=1)\n",
            "            (fc1): Conv2d(32, 8, kernel_size=(1, 1), stride=(1, 1))\n",
            "            (fc2): Conv2d(8, 32, kernel_size=(1, 1), stride=(1, 1))\n",
            "            (activation): SiLU(inplace=True)\n",
            "            (scale_activation): Sigmoid()\n",
            "          )\n",
            "          (2): Conv2dNormActivation(\n",
            "            (0): Conv2d(32, 16, kernel_size=(1, 1), stride=(1, 1), bias=False)\n",
            "            (1): BatchNorm2d(16, eps=1e-05, momentum=0.1, affine=True, track_running_stats=True)\n",
            "          )\n",
            "        )\n",
            "        (stochastic_depth): StochasticDepth(p=0.0, mode=row)\n",
            "      )\n",
            "      (1): MBConv(\n",
            "        (block): Sequential(\n",
            "          (0): Conv2dNormActivation(\n",
            "            (0): Conv2d(16, 16, kernel_size=(3, 3), stride=(1, 1), padding=(1, 1), groups=16, bias=False)\n",
            "            (1): BatchNorm2d(16, eps=1e-05, momentum=0.1, affine=True, track_running_stats=True)\n",
            "            (2): SiLU(inplace=True)\n",
            "          )\n",
            "          (1): SqueezeExcitation(\n",
            "            (avgpool): AdaptiveAvgPool2d(output_size=1)\n",
            "            (fc1): Conv2d(16, 4, kernel_size=(1, 1), stride=(1, 1))\n",
            "            (fc2): Conv2d(4, 16, kernel_size=(1, 1), stride=(1, 1))\n",
            "            (activation): SiLU(inplace=True)\n",
            "            (scale_activation): Sigmoid()\n",
            "          )\n",
            "          (2): Conv2dNormActivation(\n",
            "            (0): Conv2d(16, 16, kernel_size=(1, 1), stride=(1, 1), bias=False)\n",
            "            (1): BatchNorm2d(16, eps=1e-05, momentum=0.1, affine=True, track_running_stats=True)\n",
            "          )\n",
            "        )\n",
            "        (stochastic_depth): StochasticDepth(p=0.008695652173913044, mode=row)\n",
            "      )\n",
            "    )\n",
            "    (2): Sequential(\n",
            "      (0): MBConv(\n",
            "        (block): Sequential(\n",
            "          (0): Conv2dNormActivation(\n",
            "            (0): Conv2d(16, 96, kernel_size=(1, 1), stride=(1, 1), bias=False)\n",
            "            (1): BatchNorm2d(96, eps=1e-05, momentum=0.1, affine=True, track_running_stats=True)\n",
            "            (2): SiLU(inplace=True)\n",
            "          )\n",
            "          (1): Conv2dNormActivation(\n",
            "            (0): Conv2d(96, 96, kernel_size=(3, 3), stride=(2, 2), padding=(1, 1), groups=96, bias=False)\n",
            "            (1): BatchNorm2d(96, eps=1e-05, momentum=0.1, affine=True, track_running_stats=True)\n",
            "            (2): SiLU(inplace=True)\n",
            "          )\n",
            "  