s=1e-05, momentum=0.1, affine=True, track_running_stats=True)\n",
            "          )\n",
            "        )\n",
            "        (stochastic_depth): StochasticDepth(p=0.13043478260869565, mode=row)\n",
            "      )\n",
            "    )\n",
            "    (6): Sequential(\n",
            "      (0): MBConv(\n",
            "        (block): Sequential(\n",
            "          (0): Conv2dNormActivation(\n",
            "            (0): Conv2d(112, 672, kernel_size=(1, 1), stride=(1, 1), bias=False)\n",
            "            (1): BatchNorm2d(672, eps=1e-05, momentum=0.1, affine=True, track_running_stats=True)\n",
            "            (2): SiLU(inplace=True)\n",
            "          )\n",
            "          (1): Conv2dNormActivation(\n",
            "            (0): Conv2d(672, 672, kernel_size=(5, 5), stride=(2, 2), padding=(2, 2), groups=672, bias=False)\n",
            "            (1): BatchNorm2d(672, eps=1e-05, momentum=0.1, affine=True, track_running_stats=True)\n",
            "            (2): SiLU(inplace=True)\n",
            "          )\n",
            "          (2): SqueezeExcitation(\n",
            "            (avgpool): AdaptiveAvgPool2d(output_size=1)\n",
            "            (fc1): Conv2d(672, 28, kernel_size=(1, 1), stride=(1, 1))\n",
            "            (fc2): Conv2d(28, 672, kernel_size=(1, 1), stride=(1, 1))\n",
            "            (activation): SiLU(inplace=True)\n",
            "            (scale_activation): Sigmoid()\n",
            "          )\n",
            "          (3): Conv2dNormActivation(\n",
            "            (0): Conv2d(672, 192, kernel_size=(1, 1), stride=(1, 1), bias=False)\n",
            "            (1): BatchNorm2d(192, eps=1e-05, momentum=0.1, affine=True, track_running_stats=True)\n",
            "          )\n",
            "        )\n",
            "        (stochastic_depth): StochasticDepth(p=0.1391304347826087, mode=row)\n",
            "      )\n",
            "      (1): MBConv(\n",
            "        (block): Sequential(\n",
            "          (0): Conv2dNormActivation(\n",
            "            (0): Conv2d(192, 1152, kernel_size=(1, 1), stride=(1, 1), bias=False)\n",
            "            (1): BatchNorm2d(1152, eps=1e-05, momentum=0.1, affine=True, track_running_stats=True)\n",
            "            (2): SiLU(inplace=True)\n",
            "          )\n",
            "          (1): Conv2dNormActivation(\n",
            "            (0): Conv2d(1152, 1152, kernel_size=(5, 5), stride=(1, 1), padding=(2, 2), groups=1152, bias=False)\n",
            "            (1): BatchNorm2d(1152, eps=1e-05, momentum=0.1, affine=True, track_running_stats=True)\n",
            "            (2): SiLU(inplace=True)\n",
            "          )\n",
            "          (2): SqueezeExcitation(\n",
            "            (avgpool): AdaptiveAvgPool2d(output_size=1)\n",
            "            (fc1): Conv2d(1152, 48, kernel_size=(1, 1), stride=(1, 1))\n",
            "            (fc2): Conv2d(48, 1152, kernel_size=(1, 1), stride=(1, 1))\n",
            "            (activation): SiLU(inplace=True)\n",
            "            (scale_activation): Sigmoid()\n",
            "          )\n",
            "          (3): Conv2dNormActivation(\n",
            "            (0): Conv2d(1152, 192, kernel_size=(1, 1), stride=(1, 1), bias=False)\n",
            "            (1): BatchNorm2d(192, eps=1e-05, momentum=0.1, affine=True, track_running_stats=True)\n",
            "          )\n",
            "        )\n",
            "        (stochastic_depth): StochasticDepth(p=0.14782608695652175, mode=row)\n",
            "      )\n",
            "      (2): MBConv(\n",
            "        (block): Sequential(\n",
            "          (0): Conv2dNormActivation(\n",
            "            (0): Conv2d(192, 1152, kernel_size=(1, 1), stride=(1, 1), bias=False)\n",
            "            (1): BatchNorm2d(1152, eps=1e-05, momentum=0.1, affine=True, track_running_stats=True)\n",
            "            (2): SiLU(inplace=True)\n",
            "          )\n",
            "          (1): Conv2dNormActivation(\n",
            "            (0): Conv2d(1152, 1152, kernel_size=(5, 5), stride=(1, 1), padding=(2, 2), groups=1152, bias=False)\n",
            "            (1): BatchNorm2d(1152, eps=1e-05, momentum=0.1, affine=True, track_running_stats=True)\n",
            "            (2): SiLU(inplace=True)\n",
            "          )\n",
            "          (2): SqueezeExcitation(\n",
            "            (avgpool): AdaptiveAvgPool2d(output_size=1)\n",
            "            (fc1): Conv2d(1152, 48, kernel_size=(1, 1), stride=(1, 1))\n",
            "            (fc2): Conv2d(48, 1152, kernel_size=(1, 1), stride=(1, 1))\n",
            "            (activation): SiLU(inplace=True)\n",
            "            (scale_activation): Sigmoid()\n",
            "          )\n",
            "          (3): Conv2dNormActivation(\n",
            "            (0): Conv2d(1152, 192, kernel_size=(1, 1), stride=(1, 1), bias=False)\n",
            "            (1): BatchNorm2d(192, eps=1e-05, momentum=0.1, affine=True, track_running_stats=True)\n",
            "          )\n",
            "        )\n",
            "        (stochastic_depth): StochasticDepth(p=0.1565217391304348, mode=row)\n",
            "      )\n",
            "      (3): MBConv(\n",
            "        (block): Sequential(\n",
            "          (0): Conv2dNormActivation(\n",
            "            (0): Conv2d(192, 1152, kernel_size=(1, 1), stride=(1, 1), bias=False)\n",
            "            (1): BatchNorm2d(1152, eps=1e-05, momentum=0.1, affine=True, track_running_stats=True)\n",
            "            (2): SiLU(inplace=True)\n",
            "          )\n",
            "          (1): Conv2dNormActivation(\n",
            "            (0): Conv2d(1152, 1152, kernel_size=(5, 5), stride=(1, 1), padding=(2, 2), groups=1152, bias=False)\n",
            "            (1): BatchNorm2d(1152, eps=1e-05, momentum=0.1, affine=True, track_running_stats=True)\n",
            "            (2): SiLU(inplace=True)\n",
            "          )\n",
            "          (2): SqueezeExcitation(\n",
            "            (avgpool): AdaptiveAvgPool2d(output_size=1)\n",
            "            (fc1): Conv2d(1152, 48, kernel_size=(1, 1), stride=(1, 1))\n",
            "            (fc2): Conv2d(48, 1152, kernel_size=(1, 1), stride=(1, 1))\n",
            "            (activation): SiLU(inplace=True)\n",
            "            (scale_activation): Sigmoid()\n",
            "          )\n",
            "          (3): Conv2dNormActivation(\n",
            "            (0): Conv2d(1152, 192, kernel_size=(1, 1), stride=(1, 1), bias=False)\n",
            "            (1): BatchNorm2d(192, eps=1e-05, momentum=0.1, affine=True, track_running_stats=True)\n",
            "          )\n",
            "        )\n",
            "        (stochastic_depth): StochasticDepth(p=0.16521739130434784, mode=row)\n",
            "      )\n",
            "      (4): MBConv(\n",
            "        (block): Sequential(\n",
            "          (0): Conv2dNormActivation(\n",
            "            (0): Conv2d(192, 1152, kernel_size=(1, 1), stride=(1, 1), bias=False)\n",
            "            (1): BatchNorm2d(1152, eps=1e-05, momentum=0.1, affine=True, track_running_stats=True)\n",
            "            (2): SiLU(inplace=True)\n",
            "          )\n",
            "          (1): Conv2dNormActivation(\n",
            "            (0): Conv2d(1152, 1152, kernel_size=(5, 5), stride=(1, 1), padding=(2, 2), groups=1152, bias=False)\n",
            "            (1): BatchNorm2d(1152, eps=1e-05, momentum=0.1, affine=True, track_running_stats=True)\n",
            "            (2): SiLU(inplace=True)\n",
            "          )\n",
            "          (2): SqueezeExcitation(\n",
            "            (avgpool): AdaptiveAvgPool2d(output_size=1)\n",
            "            (fc1): Conv2d(1152, 48, kernel_size=(1, 1), stride=(1, 1))\n",
            "            (fc2): Conv2d(48, 1152, kernel_size=(1, 1), stride=(1, 1))\n",
            "            (activation): SiLU(inplace=True)\n",
            "            (scale_activation): Sigmoid()\n",
            "          )\n",
            "          (3): Conv2dNormActivation(\n",
            "            (0): Conv2d(1152, 192, kernel_size=(1, 1), stride=(1, 1), bias=False)\n",
            "            (1): BatchNorm2d(192, eps=1e-05, momentum=0.1, affine=True, track_running_stats=True)\n",
            "          )\n",
            "        )\n",
            "        (stochastic_depth): StochasticDepth(p=0.17391304347826086, mode=row)\n",
            "      )\n",
            "    )\n",
            "    (7): Sequential(\n",
            "      (0): MBConv(\n",
            "        (block): Sequential(\n",
            "          (0): Conv2dNormActivation(\n",
            "            (0): Conv2d(192, 1152, kernel_size=(1, 1), stride=(1, 1), bias=False)\n",
            "            (1): BatchNorm2d(1152, eps=1e-05, momentum=0.1, affine=True, track_running_stats=True)\n",
            "            (2): SiLU(inplace=True)\n",
            "          )\n",
            "          (1): Conv2dNormActivation(\n",
            "            (0): Conv2d(1152, 1152, kernel_size=(3, 3), stride=(1, 1), padding=(1, 1), groups=1152, bias=False)\n",
            "            (1): BatchNorm2d(1152, eps=1e-05, momentum=0.1, affine=True, track_running_stats=True)\n",
            "            (2): SiLU(inplace=True)\n",
            "          )\n",
            "          (2): SqueezeExcitation(\n",
            "            (avgpool): AdaptiveAvgPool2d(output_size=1)\n",
            "            (fc1): Conv2d(1152, 48, kernel_size=(1, 1), stride=(1, 1))\n",
            "            (fc2): Conv2d(48, 1152, kernel_size=(1, 1), stride=(1, 1))\n",
            "            (activation): SiLU(inplace=True)\n",
            "            (scale_activation): Sigmoid()\n",
            "          )\n",
            "          (3): Conv2dNormActivation(\n",
            "            (0): Conv2d(1152, 320, kernel_size=(1, 1), stride=(1, 1), bias=False)\n",
            "            (1): BatchNorm2d(320, eps=1e-05, momentum=0.1, affine=True, track_running_stats=True)\n",
            "          )\n",
            "        )\n",
            "        (stochastic_depth): StochasticDepth(p=0.1826086956521739, mode=row)\n",
            "      )\n",
            "      (1): MBConv(\n",
            "        (block): Sequential(\n",
            "          (0): Conv2dNormActivation(\n",
            "            (0): Conv2d(320, 1920, kernel_size=(1, 1), stride=(1, 1), bias=False)\n",
            "            (1): BatchNorm2d(1920, eps=1e-05, momentum=0.1, affine=True, track_running_stats=True)\n",
            "            (2): SiLU(inplace=True)\n",
            "          )\n",
            "          (1): Conv2dNormActivation(\n",
            "            (0): Conv2d(1920, 1920, kernel_size=(3, 3), stride=(1, 1), padding=(1, 1), groups=1920, bias=False)\n",
            "            (1): BatchNorm2d(1920, eps=1e-05, momentum=0.1, affine=True, track_running_stats=True)\n",
            "            (2): SiLU(inplace=True)\n",
            "          )\n",
            "          (2): SqueezeExcitation(\n",
            "            (avgpool): AdaptiveAvgPool2d(output_size=1)\n",
            "            (fc1): Conv2d(1920, 80, kernel_size=(1, 1), stride=(1, 1))\n",
            "            (fc2): Conv2d(80, 1920, kernel_size=(1, 1), stride=(1, 1))\n",
            "            (activation): SiLU(inplace=True)\n",
            "            (scale_activation): Sigmoid()\n",
            "          )\n",
            "          (3): Conv2dNormActivation(\n",
            "            (0): Conv2d(1920, 320, kernel_size=(1, 1), stride=(1, 1), bias=False)\n",
            "            (1): BatchNorm2d(320, eps=1e-05, momentum=0.1, affine=True, track_running_stats=True)\n",
            "          )\n",
            "        )\n",
            "        (stochastic_depth): StochasticDepth(p=0.19130434782608696, mode=row)\n",
            "      )\n",
            "    )\n",
            "    (8): Conv2dNormActivation(\n",
            "      (0): Conv2d(320, 1280, kernel_size=(1, 1), stride=(1, 1), bias=False)\n",
            "      (1): BatchNorm2d(1280, eps=1e-05, momentum=0.1, affine=True, track_running_stats=True)\n",
            "      (2): SiLU(inplace=True)\n",
            "    )\n",
            "  )\n",
            "  (avgpool): AdaptiveAvgPool2d(output_size=1)\n",
            "  (classifier): Sequential(\n",
            "    (0): Dropout(p=0.2, inplace=True)\n",
            "    (1): Linear(in_features=1280, out_features=1000, bias=True)\n",
            "  )\n",
            ")\n",
            "\n",
            "============================================================\n",
            "Número total de parámetros: 7,794,184\n"
          ]
        }
      ],
      "source": [
        "# Mostrar la arquitectura del modelo cargado\n",
        "print(\"Arquitectura completa del modelo EfficientNet B1:\")\n",
…
